model_weights/model_weights_1.pth (torch, 307475 bytes, 121 tensors)

conv1.bn1.weight f4 [3]
0	0x3f42342d	0.75860864
1	0x3f8285ea	1.0197117
2	0x3f744dad	0.95431024

conv1.bn1.bias f4 [3]
0	0xbe070373	-0.1318491
1	0xbd80b1d4	-0.06283918
2	0xbddb47fc	-0.10707089

conv1.bn1.running_mean f4 [3]
0	0xbc3246ca	-0.010881135
1	0xbb1fdd92	-0.002439354
2	0x3a041a49	0.0005039317

conv1.bn1.running_var f4 [3]
0	0x3e1f0f97	0.15533291
1	0x3e598dac	0.2124545
2	0x3dfaea31	0.122517

conv1.conv.weight f4 [8, 3, 7, 7]
0	0x3cb36d35	0.02190266
1	0x3d3e22f5	0.046420056
2	0xbdb2eb2c	-0.08736262
3	0x3d000b03	0.0312605
4	0xbd922fff	-0.07138061
5	0xbd879801	-0.06620789
6	0xbd932efc	-0.07186696
7	0xbd80a5d2	-0.06281628
8	0xbc8d7ce7	-0.017271472
9	0xbd257c59	-0.04040179
10	0x3d089557	0.033345547
11	0x3c51eaa1	0.012812288
12	0x3c499c5a	0.0123053435
13	0xbd1fce03	-0.039014827
14	0x3d7d7e2b	0.0618879
15	0x3c072356	0.008248171
16	0xbcda9b48	-0.026685372
17	0x3c07f499	0.008298063
18	0xbd1a0deb	-0.03761093
19	0x3b88f03f	0.00417903
20	0xbbaa1bcd	-0.0051913024
21	0x3e035a2f	0.12827371
22	0x3d967f04	0.07348445
23	0x3d781fff	0.06057739
24	0xbce4d608	-0.02793409
25	0xbcaae1a4	-0.020859547
26	0xbc16690d	-0.0091803195
27	0x3cceef6f	0.025260655
28	0xbc8e9c0e	-0.017408397
29	0xbd0df266	-0.034654997
30	0xbd3ffe48	-0.04687336
31	0x3c43f504	0.011960272
32	0xbbc5ca68	-0.0060360916
33	0x3d35f878	0.04442641
34	0x3b3b9c44	0.0028627077
35	0x3d79fd7d	0.06103276
36	0x3d116718	0.03549871
37	0xbda0e06c	-0.07855305
38	0xbd7434d8	-0.05962071
39	0x3ce771c2	0.028252486
40	0x3d19a207	0.037508037
41	0x3d36f0b8	0.04466316
42	0x3d9892d2	0.07449879
43	0xbd1745b2	-0.0369317
44	0xbd6bf01f	-0.057602044
45	0xbd385a6c	-0.045008108
46	0x3c361a5f	0.011114686
47	0x3d2ee717	0.042700853
48	0x3cee270f	0.029071359
49	0xbe1a5e11	-0.15074946
50	0xbdd55b60	-0.10417819
51	0xbd7b43a6	-0.06134381
52	0xbe11a90d	-0.14224644
53	0xbd725e90	-0.059172213
54	0xbdbc5d1c	-0.09197447
55	0x3ca9cf4e	0.020728733
56	0xbc9fd87d	-0.01951241
57	0xbd5ec1f6	-0.054384194
58	0xbc47cdfd	-0.0121951075
59	0xbe0b3781	-0.13595392
60	0xbe0ca6c9	-0.13735498
61	0xbcaf3a7d	-0.021390194
62	0xbca73a14	-0.020413436
63	0xbe0e11bc	-0.13873953
64	0xbcdb30db	-0.026756695
65	0xbe1298e9	-0.14316143
66	0xbafc48b1	-0.0019247738
67	0xbdae8522	-0.08521487
68	0xbbc00bf3	-0.0058607995
69	0xbda9852a	-0.08277352
70	0xbdba850e	-0.091074094
71	0xbc25ad10	-0.010112062
72	0xbddc2bbd	-0.1075053
73	0x3ca96014	0.020675696
74	0xbb031ed9	-0.00200074
75	0x3d9584c8	0.07300717
76	0x3d877757	0.06614559
77	0xbd5e356b	-0.054250162
78	0xbc6a705b	-0.014309014
79	0x3bc95f7f	0.006145417
80	0x3b00f550	0.0019677468
81	0x3da179c2	0.078845516
82	0x3e36e487	0.17860614
83	0x3dbcaf90	0.092131734
84	0x3ce9c4ff	0.028536318
85	0x3e051e91	0.12999941
86	0x3d490c4d	0.049083997
87	0x3e1c01cf	0.15235065
88	0x3e0fdc0a	0.14048782
89	0x3d2d247f	0.042271134
90	0x3d8cfa96	0.06883733
91	0x3d8d268f	0.0689212
92	0x3e0a1a91	0.13486697
93	0x3e0e8969	0.13919605
94	0x3dd7e323	0.1054137
95	0x3de5614b	0.11200198
96	0x3c8d0828	0.017215803
97	0x3d8b55ea	0.06803496
98	0x3d38099b	0.044931035
99	0x3d46c509	0.04852775
100	0xbdb6f51f	-0.08933472
101	0x3d1d3d9f	0.038388845
102	0x3d7bec1b	0.061504465
103	0xbd7b60ff	-0.0613718
104	0x3d7d9756	0.061911903
105	0x3bba765d	0.0056903795
106	0x3d3ee887	0.046608474
107	0xbc8720fa	-0.016495217
108	0xbd99f297	-0.075169735
109	0xbda7b218	-0.081882656
110	0xbc8b9d7d	-0.01704287
111	0x3da763e7	0.08173352
112	0xbd4f1907	-0.050560977
113	0x3c164bf9	0.009173387
114	0xbd0acfa1	-0.033889417
115	0x3d063153	0.032761883
116	0x3d24d592	0.04024274
117	0x3d5e98d8	0.054344982
118	0x3d3bfd5c	0.04589592
119	0xbd59e079	-0.05319259
120	0xbda1774e	-0.07884084
121	0xbd26bada	-0.04070554
122	0x3ced116f	0.028938977
123	0x3cd88432	0.026430223
124	0x3e0a5a95	0.13511117
125	0x3df361dd	0.118839
126	0xbd0fe78c	-0.03513293
127	0xbc66d1a3	-0.014088067
128	0xbddf0772	-0.10890092
129	0xbc17ee8f	-0.009273185
130	0xbcc9e6fb	-0.024646273
131	0x3d08bb69	0.033381853
132	0x3db34129	0.08752663
133	0xbc4d23e3	-0.012520763
134	0x3cb5c8e2	0.022190515
135	0xbb535d2a	-0.0032251575
136	0xbdd3ea30	-0.10347402
137	0xbd773374	-0.060351804
138	0x3d5fa7d6	0.05460342
139	0x3d61aa1e	0.055093877
140	0x3cb833e4	0.02248568
141	0xbd19ef8e	-0.037581973
142	0xbdd67024	-0.10470608
143	0xbd4fdce8	-0.050747782
144	0xbd827ab9	-0.06371064
145	0x3d19ec2b	0.037578743
146	0xbda8b03c	-0.08236739
147	0x3db5f3e8	0.08884412
148	0x3df75497	0.12076681
149	0x3d2266f2	0.039648958
150	0xbd061c3c	-0.03274177
151	0xbda9c677	-0.08289807
152	0x3b7eb67b	0.003886609
153	0xbd426c6e	-0.047466688
154	0x3e102850	0.14077878
155	0x3dbe156c	0.0928143
156	0xbbc2183e	-0.0059233
157	0xbd203c9e	-0.03912031
158	0xbd1f65c7	-0.03891542
159	0x3c1bfe25	0.009521042
160	0xbdbf2d64	-0.093348294
161	0x3a636a74	0.00086752255
162	0x3cc32b6b	0.023824414
163	0x3d03997e	0.032128803
164	0xbd063481	-0.032764915
165	0x3d95b78c	0.073103994
166	0x3d472463	0.048618685
167	0xbc679671	-0.014134989
168	0xbb4a06e1	-0.0030826854
169	0x3d8239cb	0.063586794
170	0x3cb8afff	0.022544859
171	0x3b7c2727	0.0038475485
172	0xbcac554a	-0.021036763
173	0xbcc3fe8c	-0.023925088
174	0x3d6fce99	0.058546636
175	0x3daae413	0.08344283
176	0xbbc5ee36	-0.00604036
177	0xbc8a9edc	-0.016921453
178	0x3d884c3d	0.06655166
179	0x3d246bb1	0.040141765
180	0x3cb3608a	0.02189662
181	0x3d4f5739	0.05062029
182	0x3d5231cf	0.051317032
183	0x3b976253	0.0046198755
184	0xbd1685ca	-0.036748685
185	0x3dd36a3d	0.10322998
186	0x3d97f43e	0.074196324
187	0xbc30c70e	-0.010789646
188	0x3dbaa023	0.09112575
189	0x3d80ecba	0.06295152
190	0x3df8e243	0.12152531
191	0x3d81cd39	0.06337971
192	0x3d9ac10b	0.07556351
193	0x3ded0b2e	0.11574398
194	0x3de9ed59	0.114222236
195	0xbc04fe65	-0.008117293
196	0xbd03c30d	-0.032168437
197	0xbdc1f97b	-0.09471413
198	0xbd443f3d	-0.04791187
199	0xbdc0c5a5	-0.09412698
200	0xbd89c27e	-0.067265496
201	0xbdb65c38	-0.08904308
202	0xbdb60d5a	-0.08889265
203	0x3d8b4644	0.068005115
204	0xbd8bae1d	-0.06820319
205	0xbe01b867	-0.12668
206	0xbd671498	-0.056416124
207	0xbdba8d24	-0.09108952
208	0xbe1fbee1	-0.15600158
209	0xbd7600d4	-0.060059384
210	0xbda89e6c	-0.082333416
211	0xbd9998cb	-0.07499846
212	0xbd04efea	-0.032455362
213	0xbdd3fb20	-0.10350633
214	0xbdb8d28f	-0.09024536
215	0xbd60473c	-0.054755434
216	0xbe0b79c3	-0.13620667
217	0xbc864f63	-0.016395276
218	0xbdc31226	-0.09524946
219	0xbd5f32c8	-0.05449179
220	0xbda5d87d	-0.080979325
221	0xbdd4694c	-0.10371646
222	0xbe124dfa	-0.14287558
223	0xba0163f8	-0.0004935856
224	0xbd60f773	-0.054923486
225	0xbdc28fed	-0.09500108
226	0xbe10a5f0	-0.141258
227	0xbdfe0733	-0.12403717
228	0xbda4cf22	-0.0804732
229	0xbd8d9bbc	-0.069144696
230	0x3b959d55	0.0045658746
231	0xbd84105d	-0.064484335
232	0xbdd48506	-0.10376935
233	0xbdbbd309	-0.09171111
234	0xbe0b3602	-0.13594821
235	0xbdef03f0	-0.11670673
236	0xbe02f396	-0.12788233
237	0x397c07c6	0.00024035489
238	0xbd6ea959	-0.05826697
239	0xbcf1b86c	-0.029506885
240	0x3b02ede2	0.0019978215
241	0xbdbddc46	-0.092705294
242	0xbdd9b37b	-0.10629936
243	0x3d3eb2ce	0.04655724
244	0xbcad4bb0	-0.021154255
245	0x3dc15b36	0.09441225
246	0xb96803fa	-0.00022126726
247	0xbd9f73c7	-0.07785755
248	0xbd80b688	-0.06284815
249	0xbd3cf851	-0.04613525
250	0x3cfbc9c2	0.030735854
251	0xbd81780f	-0.063217275
252	0x3bcdb8b3	0.0062781214
253	0x3df2986d	0.11845479
254	0xbc1662ae	-0.0091788005
255	0x3d8df844	0.069321185

conv1.bn2.weight f4 [8]
0	0x3f81eb73	1.0149978
1	0x3f6e5f5e	0.9311427
2	0x3f74172c	0.9534786
3	0x3f749ec7	0.95554775
4	0x3f6e00ed	0.9297016
5	0x3f7c0742	0.98448575
6	0x3f6ea525	0.9322074
7	0x3f68adfd	0.90890485

conv1.bn2.bias f4 [8]
0	0xbcc4bc4f	-0.024015574
1	0xbdc96251	-0.098332055
2	0xbd66106e	-0.056168012
3	0x3d7c7307	0.061633136
4	0xbd96b2c7	-0.07358318
5	0xbc805e83	-0.015670067
6	0xbc3e6c5b	-0.011622514
7	0x3c261861	0.010137648

conv1.bn2.running_mean f4 [8]
0	0x3b528884	0.0032124827
1	0xbd4792c3	-0.048723947
2	0x3d56a436	0.052402698
3	0x3d949260	0.07254481
4	0x3d54fa21	0.051996354
5	0xbd18b865	-0.037285227
6	0xbcd7d02d	-0.026344383
7	0x3c992ab6	0.018697124

conv1.bn2.running_var f4 [8]
0	0x3e15db6c	0.14634484
1	0x4018ab40	2.3854523
2	0x3f35f0d2	0.7107059
3	0x409a46e0	4.8211517
4	0x40c74f71	6.2284474
5	0x40db923f	6.8616023
6	0x3fbf5e78	1.4950705
7	0x3f983435	1.1890932

res1.conv1.bn1.weight f4 [8]
0	0x3f82438e	1.0176866
1	0x3f7e9d24	0.9945853
2	0x3f69a75c	0.91270995
3	0x3f767a7e	0.9628066
4	0x3f6dc8d7	0.9288458
5	0x3f74aaf9	0.95573384
6	0x3f6e61a2	0.93117726
7	0x3f626fa9	0.8845163

res1.conv1.bn1.bias f4 [8]
0	0xbda3e451	-0.08002532
1	0x3c1d159f	0.009587674
2	0x3c99af72	0.018760417
3	0x3d5b1544	0.053487077
4	0x3d059385	0.03261139
5	0xbcd759bd	-0.026287908
6	0x3d512281	0.051058296
7	0xbd4d69d2	-0.050149746

res1.conv1.bn1.running_mean f4 [8]
0	0x3ef116c1	0.47087672
1	0x3ec46eda	0.38365823
2	0x3ed8f0a4	0.42371094
3	0x3ebc5e76	0.36790818
4	0x3ebc969a	0.3683365
5	0x3ed64446	0.41848963
6	0x3ec5d585	0.38639465
7	0x3ee47873	0.44623145

res1.conv1.bn1.running_var f4 [8]
0	0x3f184373	0.5947792
1	0x3ec3dbdf	0.38253686
2	0x3edeab86	0.43490237
3	0x3f0857b2	0.5325881
4	0x3f029966	0.5101532
5	0x3eab15ee	0.3341517
6	0x3edc514d	0.43030778
7	0x3e88f388	0.267483

res1.conv1.conv.weight f4 [16, 8, 3, 3]
0	0xbd568695	-0.05237444
1	0xbd63f60e	-0.055654578
2	0xbd8722ce	-0.06598435
3	0xbe1e8c81	-0.15483285
4	0xbd8cb10b	-0.06869706
5	0xbddb1582	-0.10697462
6	0xbd6de360	-0.05807817
7	0xbe49261d	-0.19643445
8	0xbe28ff5a	-0.16503659
9	0x3e0188e8	0.12649882
10	0x3e154ce3	0.14580111
11	0x3e14cfc3	0.1453238
12	0xbc0bc267	-0.008530236
13	0x3d8a9b72	0.0676793
14	0x3dc7915e	0.097445235
15	0x3d0c65b9	0.034276698
16	0xbdb2ae07	-0.08724599
17	0x3d6ad67c	0.057333454
18	0xbdac5eaf	-0.08416497
19	0x3a7b6368	0.0009589703
20	0xbc5a570c	-0.013326418
21	0xbc759f00	-0.014991522
22	0x3c414190	0.0117954165
23	0x3c1bdc20	0.009512931
24	0x3d885ce8	0.066583455
25	0xbc9592f9	-0.018258559
26	0xbca6ad5b	-0.020346334
27	0x3cb4bbeb	0.022062263
28	0xbd78769b	-0.060659986
29	0xbdbe9741	-0.09306193
30	0xbcb1323d	-0.0216304
31	0xbd1d6171	-0.038423005
32	0xbca319cc	-0.019909762
33	0xbdcf05a4	-0.10108498
34	0xbe08d68b	-0.13363092
35	0xbdc89752	-0.09794487
36	0xbdb4b1e1	-0.0882299
37	0x3ca10b61	0.019658746
38	0xbdadd38e	-0.084876165
39	0x3d4b8084	0.04968311
40	0xbd54d3ef	-0.051959928
41	0xbde8ebde	-0.11373113
42	0xbd471195	-0.048600752
43	0xbd770ce3	-0.060315024
44	0x3d2fa7a5	0.042884488
45	0x3dd8c129	0.105837174
46	0xbd40892a	-0.04700581
47	0x3d10b102	0.035325058
48	0xbda2ee25	-0.07955579
49	0xbcd3e5eb	-0.02586647
50	0x3d28d9a7	0.041223194
51	0xbdf7abc9	-0.12093312
52	0x3d82dd83	0.06389906
53	0xbcc609df	-0.024174629
54	0xbcf37825	-0.029720375
55	0x3c4eb58c	0.012616526
56	0x3cc2e7a6	0.0237921
57	0x3d99b496	0.07505147
58	0xbbe6862d	-0.007035038
59	0xbd8d1767	-0.06889229
60	0x3db5eaec	0.088826984
61	0x3d8a9579	0.06766791
62	0x3da7f5cc	0.08201179
63	0xbd072c02	-0.033000953
64	0x3cf720ff	0.030167101
65	0xbdb28053	-0.08715882
66	0xbc9a7d0a	-0.018858451
67	0xbd82e936	-0.06392138
68	0xbd7ae51d	-0.061253656
69	0x3bedf40e	0.0072617596
70	0xbc898338	-0.016786203
71	0x3d0420b5	0.032257754
72	0xbe6cde40	-0.23131657
73	0xbddbb0c1	-0.107270725
74	0xbccb38e8	-0.024807408
75	0xbd2532b5	-0.04033156
76	0x3d74f33d	0.059802283
77	0xbcacb1dd	-0.021080906
78	0x3d1c3162	0.038133033
79	0x3d00aba6	0.031413697
80	0xbdafd15a	-0.085848525
81	0xbc5f5ff8	-0.013633721
82	0x3d95e655	0.07319323
83	0x3c8de7bb	0.017322412
84	0xbe6ba1c7	-0.23010932
85	0x3ac4dbed	0.0015019156
86	0xbe1a906f	-0.1509416
87	0xbe95273b	-0.29131493
88	0xbe22bc05	-0.15892036
89	0xbe2d54fb	-0.16926949
90	0x3cfe053a	0.031008352
91	0x3c317bf2	0.0108327735
92	0xbd995836	-0.07487528
93	0xbe157c1d	-0.14598127
94	0xbcbd63e9	-0.02311893
95	0x3d116e6c	0.035505697
96	0xbceddf83	-0.029037243
97	0x3aa1ab4a	0.0012334373
98	0x3d03a013	0.03213508
99	0xbcc680d6	-0.024231356
100	0xbdbbca5d	-0.09169457
101	0xbe74755a	-0.23872891
102	0xbe3a0b76	-0.18168435
103	0xbdf28c58	-0.11843175
104	0xbe4d57f1	-0.20053078
105	0x3c58b773	0.013227331
106	0x3c9fd257	0.019509478
107	0xbe186b8f	-0.1488478
108	0xbdbeb8dc	-0.09312603
109	0xbd259d47	-0.040433194
110	0xbe14b137	-0.14520727
111	0x3d5104f2	0.051030107
112	0xbdea8b48	-0.11452347
113	0xbce65f35	-0.02812157
114	0x3d2bfdef	0.041990217
115	0xbdb8e4e2	-0.09028031
116	0xbe068243	-0.13135628
117	0xbcddaa9b	-0.02705889
118	0xbddbfa55	-0.107411064
119	0xbdb64ce2	-0.08901383
120	0xbd8d2ad3	-0.06892934
121	0xbe3a10cd	-0.18170471
122	0x3d8bb330	0.06821287
123	0xbde8d1f5	-0.11368171
124	0xbe28df54	-0.16491443
125	0x3cf14734	0.029452898
126	0x3b1747ec	0.002308364
127	0x3d8905c5	0.066905536
128	0x3dd2e852	0.10298218
129	0x3d8201e0	0.06348014
130	0x3ce29205	0.027657518
131	0xbcce4c2a	-0.025182802
132	0x3d8d15e6	0.068889424
133	0x3df1e8d3	0.11811986
134	0xbcc542c7	-0.024079693
135	0xbe28be1f	-0.16478775
136	0xbc3d2b57	-0.011545978
137	0xbe3a249a	-0.18178025
138	0xbdb4934b	-0.088171564
139	0xbd2c917d	-0.042130936
140	0x3a9f358b	0.0012146694
141	0x3e182145	0.14856441
142	0x3dae97eb	0.0852507
143	0x3db2e43e	0.0873494
144	0x3d60b678	0.054861516
145	0x3df4c7cf	0.11952173
146	0x3e30c540	0.17262745
147	0xbd7642c6	-0.060122274
148	0xbd85297f	-0.065020554
149	0xbd81a4ac	-0.06330237
150	0x3c2d5715	0.010579844
151	0xbd870061	-0.06591869
152	0x3cc676c0	0.024226546
153	0xbe5010df	-0.20318936
154	0xbe0c25aa	-0.13686243
155	0xbe6e80e3	-0.23291354
156	0x3ca89e94	0.020583428
157	0xbe368e4b	-0.17827718
158	0xbe3e4547	-0.18581115
159	0xbe136399	-0.14393462
160	0xbdc74e41	-0.097317226
161	0xbe44407d	-0.19165225
162	0xbbc3d893	-0.0059767454
163	0x3e22e78f	0.15908645
164	0xbc1d9bc3	-0.009619656
165	0x3d7e1c28	0.06203857
166	0x3dad0e37	0.08449977
167	0xbc37aa84	-0.011210088
168	0xbd4e18fd	-0.0503168
169	0xbd8c7246	-0.068577334
170	0xbd19f5ca	-0.03758792
171	0xbd41cba8	-0.047313362
172	0xbd8ff2a1	-0.070287
173	0x3db83ad3	0.08995595
174	0x3e0495e0	0.12947798
175	0x3dea0fcf	0.114287965
176	0x3daefdee	0.08544527
177	0x3d78ae6f	0.060713228
178	0xbd8c2258	-0.06842488
179	0x3b2a8b2f	0.0026022901
180	0x3d0f43b2	0.03497667
181	0xbd5dfd44	-0.05419661
182	0x3d1b1673	0.037863206
183	0xbcb13d7f	-0.021635769
184	0xbd761e53	-0.060087513
185	0x3d2969c2	0.041360624
186	0x3d12776b	0.035758417
187	0xbd08f22b	-0.033434074
188	0xbda24e19	-0.07925052
189	0xbccab567	-0.024744703
190	0x3dcba014	0.09942642
191	0xbe043da3	-0.12914138
192	0xbd435495	-0.047688086
193	0xbdb85039	-0.08999676
194	0x3dc29442	0.09500934
195	0x3dc2fa6e	0.09520422
196	0x3e06ed2e	0.13176414
197	0xbd3aabca	-0.045573987
198	0x3d5790f5	0.052628476
199	0x3cc5ced8	0.024146482
200	0xbe0d49b5	-0.13797648
201	0xbe381adf	-0.17979
202	0xbcb3f603	-0.021967893
203	0xbe215903	-0.15756612
204	0xbe1bfd1b	-0.15233271
205	0xbdcd0c66	-0.100121304
206	0x3d68238e	0.056674533
207	0xbbc6a872	-0.0060625607
208	0xbd8faa4a	-0.07014902
209	0xbd716380	-0.05893278
210	0x3c7a1633	0.015264082
211	0x3b4aa2fa	0.0030919896
212	0xbdcab07c	-0.09896943
213	0x3d77969b	0.060446363
214	0xbde1b834	-0.11021462
215	0xbe0cbbe1	-0.13743545
216	0xbd0c5d56	-0.0342687
217	0x3df954e4	0.12174395
218	0xbd3bcaa4	-0.04584755
219	0xbde5cbde	-0.11220525
220	0xbc0ff7af	-0.00878708
221	0xbe0d4fbe	-0.1379995
222	0xbe1197ff	-0.14218138
223	0xbc228a2c	-0.009920638
224	0x3dadd600	0.08488083
225	0xbe332569	-0.1749474
226	0xbda934a7	-0.08261996
227	0xbc8e22c6	-0.017350566
228	0x3d4a7130	0.04942435
229	0x3da08c4b	0.07839259
230	0xbe023c6a	-0.12718359
231	0xbdd30cb3	-0.103051566
232	0x3c01aba2	0.007914456
233	0x3de4ac32	0.11165656
234	0xbdbbf928	-0.09178382
235	0xbd11e524	-0.035618916
236	0xbdc3ad55	-0.09554545
237	0x3ce2f605	0.027705202
238	0xbe3416ff	-0.17586897
239	0xbd2f3fec	-0.04278557
240	0xbbecc7ef	-0.0072259824
241	0xbe21b735	-0.15792544
242	0xbda49945	-0.08037046
243	0xbd879386	-0.06619935
244	0xbcf80ec4	-0.030280478
245	0xbe005010	-0.12530541
246	0xbe0413ea	-0.12898222
247	0x3d420399	0.047366712
248	0xbc0ac45d	-0.008469668
249	0x3c4b8c91	0.01242365
250	0xbdfb41df	-0.12268423
251	0xbde60763	-0.11231878
252	0x3d190202	0.03735543
253	0xbdec524e	-0.11539136
254	0x3c63d83a	0.013906533
255	0x3d7189be	0.05896925

res1.conv1.bn2.weight f4 [16]
0	0x3f3d1abd	0.73868924
1	0x3f60b209	0.8777166
2	0x3f4c97bb	0.7991902
3	0x3f4b143c	0.7932775
4	0x3f53a052	0.82666504
5	0x3f601bbe	0.8754233
6	0x3f482f47	0.7819714
7	0x3f50566b	0.81381863
8	0x3f54bc4d	0.83099824
9	0x3f595c07	0.8490605
10	0x3f53b6ce	0.8270081
11	0x3f5fbb3e	0.87395084
12	0x3f56cf14	0.83909726
13	0x3f578280	0.841835
14	0x3f5c01a6	0.85940015
15	0x3f5607b1	0.83605486

res1.conv1.bn2.bias f4 [16]
0	0x3b1f0e52	0.002427001
1	0x3d9d7c46	0.07689719
2	0x3ccfb153	0.02535311
3	0xbd84165e	-0.06449579
4	0xbd7c0859	-0.0615314
5	0x3ca69836	0.020336252
6	0x3d31b957	0.043389644
7	0xbc53cf99	-0.012927913
8	0xbd71be75	-0.059019525
9	0xbd2ad362	-0.041705497
10	0xbc7f6de3	-0.015590164
11	0xbd13f49c	-0.03612195
12	0xbcb4e642	-0.022082452
13	0xbb8de5d2	-0.004330375
14	0xbc294a6f	-0.010332688
15	0x3d93951a	0.07206173

res1.conv1.bn2.running_mean f4 [16]
0	0xbbaba9f5	-0.0052387663
1	0x3b93c8bf	0.004510015
2	0xbb97f1f5	-0.004636998
3	0x39322db0	0.00016992423
4	0x3ba36391	0.0049862345
5	0xbb490b88	-0.003067704
6	0x3c56f4df	0.013119905
7	0xbc28b3e5	-0.010296796
8	0xbbd68711	-0.006546863
9	0xbb96e911	-0.0046054204
10	0xbc83c77a	-0.016086329
11	0xbc486b03	-0.012232545
12	0x3c601ec0	0.013679206
13	0x3b09a531	0.0021003003
14	0x3c066dca	0.008204887
15	0xbc51e001	-0.012809754

res1.conv1.bn2.running_var f4 [16]
0	0x3fc484c8	1.5353022
1	0x3f357a03	0.708893
2	0x3fbc309a	1.4702332
3	0x3e9bd5fd	0.30436698
4	0x3f2189a2	0.63100636
5	0x3fcc330a	1.5953076
6	0x3ef58126	0.47950095
7	0x3fe54f7f	1.7914885
8	0x3e847897	0.25873253
9	0x3f0fa6fe	0.56114185
10	0x3f257b45	0.6464122
11	0x3f3ad0a1	0.7297459
12	0x3ea6e5d3	0.32597217
13	0x3f3721e8	0.7153611
14	0x3f3a8de1	0.7287274
15	0x3f37d08f	0.7180261

res1.conv2.bn1.weight f4 [16]
0	0x3f4c74b6	0.79865587
1	0x3f7aacb5	0.9791978
2	0x3f66b88a	0.90125334
3	0x3f594228	0.8486657
4	0x3f6f1049	0.93384224
5	0x3f815d07	1.0106515
6	0x3f5df8c9	0.8670774
7	0x3f4f701c	0.8103044
8	0x3f6e6df7	0.93136543
9	0x3f8438e8	1.0329866
10	0x3f6cab79	0.92449147
11	0x3f5d81ae	0.86526
12	0x3f8063e1	1.0030481
13	0x3f682f73	0.906974
14	0x3f724879	0.94641834
15	0x3f650154	0.8945515

res1.conv2.bn1.bias f4 [16]
0	0x3dafaf79	0.08578391
1	0x3d742c73	0.059612703
2	0xbc74d4fd	-0.0149433585
3	0x3b65c4eb	0.003506
4	0x3d1f15bc	0.038839087
5	0xbcf5ba7e	-0.029996153
6	0x3d8aba8c	0.06773862
7	0x3d9efce4	0.07763079
8	0xb94595c3	-0.00018843175
9	0xbae98ac0	-0.001781784
10	0x3d14a7ab	0.036292713
11	0x3ab05078	0.0013451716
12	0xbd113636	-0.03545209
13	0x3d8957b1	0.06706179
14	0x3cd48d80	0.025946379
15	0xbca6b8e7	-0.02035184

res1.conv2.bn1.running_mean f4 [16]
0	0x3eaa8784	0.33306515
1	0x3eaa9d2e	0.33323044
2	0x3eadb575	0.33927503
3	0x3eb728b3	0.3577324
4	0x3ea3a9a2	0.31965357
5	0x3eafa28f	0.3430371
6	0x3eae8601	0.34086612
7	0x3eb9225b	0.36159024
8	0x3eaadec0	0.3337307
9	0x3ea505de	0.3223104
10	0x3eb6c04e	0.35693592
11	0x3ea4899d	0.3213624
12	0x3eb3732b	0.35048804
13	0x3ea9ced9	0.33165625
14	0x3ea8e02d	0.32983533
15	0x3ea859e3	0.32881078

res1.conv2.bn1.running_var f4 [16]
0	0x3ece2919	0.4026573
1	0x3eda9b66	0.42696685
2	0x3e30ff83	0.1728497
3	0x3e771f44	0.2413302
4	0x3f11273c	0.5670049
5	0x3e80ce8b	0.2515758
6	0x3edb6e8f	0.42857787
7	0x3eb66a96	0.35628194
8	0x3eca0123	0.39453992
9	0x3ebc945b	0.36831936
10	0x3ed372ae	0.4129843
11	0x3e2506dc	0.16115898
12	0x3ee3e62f	0.44511554
13	0x3f002aae	0.50065124
14	0x3ea66bdc	0.32504165
15	0x3e8edd1a	0.27903062

res1.conv2.conv.weight f4 [16, 16, 3, 3]
0	0x3db2d456	0.08731906
1	0xbc45846a	-0.012055496
2	0x3d2dfdda	0.04247842
3	0x3c8ba365	0.017045686
4	0xbd970680	-0.07374287
5	0xbd515ddd	-0.051114906
6	0xbd6ef307	-0.058337238
7	0xbcd82536	-0.026384931
8	0x3db92b4b	0.090414606
9	0xbbd8aad0	-0.0066121593
10	0x3dd56797	0.10420149
11	0x3d4f4f85	0.050612945
12	0x3dd1e099	0.10247917
13	0x3e2193fb	0.15779106
14	0x3dfac2fb	0.12244221
15	0x3cd70864	0.026249118
16	0xbd3e9c01	-0.046535496
17	0xbcbbc6e7	-0.022921992
18	0x3e34b06d	0.17645426
19	0x3d9df5ae	0.07712875
20	0xbd96963e	-0.07352875
21	0x3d1f96f3	0.038962316
22	0x3c5445dc	0.012956109
23	0xbd323582	-0.04350806
24	0x3dbcc6e2	0.092176214
25	0x3d51fd78	0.051267117
26	0x3d134346	0.03595283
27	0xbdd2d231	-0.10293997
28	0xbd8c6ac4	-0.068563014
29	0xbca42d3b	-0.020041099
30	0xbb19af90	-0.002345059
31	0xbcfcc16e	-0.030853953
32	0xbd5c3fa8	-0.053771645
33	0x3d80a05b	0.062805854
34	0x3d4488eb	0.047982138
35	0x3d1c5d12	0.038174696
36	0x3c6ded23	0.01452187
37	0xbda54573	-0.08069887
38	0xbc437a65	-0.011931037
39	0x3dcc4530	0.09974134
40	0xbd3f23fc	-0.046665177
41	0xbdd58942	-0.104265705
42	0x3d71b0da	0.05900655
43	0x3ccd14b1	0.02503428
44	0xbe14cc2e	-0.14531013
45	0x3d2ac6a9	0.041693363
46	0x3da5f0d2	0.081025735
47	0x3cae123f	0.021248935
48	0x3d116bbe	0.03550314
49	0xbd9f549c	-0.0777981
50	0xbbbb2854	-0.0057115946
51	0xbd9e720f	-0.07736599
52	0x3cd56f94	0.026054181
53	0x3d6a38cd	0.057183076
54	0xbb0194f5	-0.0019772623
55	0x3d33ac58	0.04386553
56	0x3e044ebc	0.1292066
57	0x3dd0242b	0.101631485
58	0xbd49b2d4	-0.04924281
59	0x3dba9606	0.09110646
60	0xbd9c8ac4	-0.07643655
61	0xbe270627	-0.1631094
62	0xbdc78abc	-0.09743258
63	0xbdab0b5d	-0.08351777
64	0xbd2d1e95	-0.042265493
65	0xbe00a10a	-0.12561432
66	0xbd75e9a7	-0.06003728
67	0xbda971d1	-0.08273662
68	0x3a3905ac	0.0007058035
69	0x3d7668d2	0.06015856
70	0x3d35e2ed	0.044405866
71	0x3b9c831a	0.0047763707
72	0x3d4064f6	0.046971284
73	0xbdb682ad	-0.08911643
74	0x3cf854a4	0.030313797
75	0x398835f0	0.00025980128
76	0x3b7cdb3a	0.0038582818
77	0x3a76df87	0.00094174634
78	0xbcae3e6c	-0.02127
79	0xbd04a399	-0.03238258
80	0xbddaa54d	-0.1067606
81	0xbe345ab2	-0.17612723
82	0xbe253a9b	-0.16135637
83	0x3a7cf75c	0.00096498965
84	0x3c6625ca	0.014047096
85	0x3da39a10	0.079883695
86	0x3da5b5c8	0.08091313
87	0xbd27cb1d	-0.04096519
88	0x3cf93aac	0.030423485
89	0xbd9e22ca	-0.07721479
90	0x3cc3a561	0.02388257
91	0x3da4b6ca	0.08042677
92	0xbc86c93b	-0.016453376
93	0xbcb972c5	-0.022637734
94	0xbd5e45e7	-0.054265883
95	0xbd25d919	-0.040490244
96	0x3d393ba6	0.0452229
97	0x3d8e1c12	0.06938948
98	0xbdd30769	-0.10304148
99	0xbc2b3fc1	-0.010452212
100	0x3d5e5c0f	0.054287013
101	0xbd9b4da4	-0.07583168
102	0xbd789ad1	-0.06069452
103	0x3b401543	0.0029309548
104	0xbd483eb6	-0.04888793
105	0x3d9f7245	0.07785467
106	0x3de87134	0.11349717
107	0x3b2ee90b	0.0026689197
108	0xbdf86b2b	-0.12129816
109	0xbe3c074d	-0.1836216
110	0xbc19d845	-0.009389942
111	0xbccd8536	-0.025087934
112	0xbd122ebb	-0.035689097
113	0xbd060bf4	-0.032726243
114	0xbda8f8ec	-0.08250603
115	0x3cd5b335	0.02608643
116	0xbd907541	-0.070536144
117	0x3d0cd771	0.03438515
118	0xbdbb1842	-0.09135486
119	0x3d02a6ed	0.031897474
120	0xbdacb843	-0.08433583
121	0xbd6af284	-0.057360187
122	0x3ba6dbdd	0.0050921277
123	0x3d07d2b3	0.033159923
124	0x3d871463	0.06595685
125	0x3cf8936c	0.030343734
126	0x3ca0a2e5	0.019608924
127	0x3d92543b	0.07144972
128	0xbdb300f8	-0.08740419
129	0x3d86217f	0.065493576
130	0x3db0494a	0.08607729
131	0x3d9579ff	0.072986595
132	0xbda8bb0f	-0.082388036
133	0xbe070ef3	-0.13189296
134	0xbe01a02a	-0.12658754
135	0x3d151afb	0.036402684
136	0xbddeeabf	-0.10884618
137	0xbdd20a47	-0.102558665
138	0xbd8efbe8	-0.06981641
139	0xbde65b40	-0.11247873
140	0x3c315d10	0.0108254105
141	0x3cec1a8c	0.028821252
142	0x3d48c023	0.04901136
143	0x3d2f4aa8	0.042795807
144	0xbce60dc3	-0.028082734
145	0xbd9755e9	-0.07389433
146	0xbd615c65	-0.055019755
147	0xbbac10a1	-0.0052510058
148	0x3d555f04	0.052092567
149	0x3d370bb5	0.0446889
150	0xbd1a70c4	-0.037705198
151	0x3b26bd90	0.0025442578
152	0x3dc6368c	0.09678373
153	0xbdbc2a2b	-0.091877304
154	0x3b4d5d8d	0.0031336278
155	0x3d89230f	0.0669614
156	0xbc72afc2	-0.014812412
157	0xbd6d9770	-0.05800575
158	0xbc9dfec9	-0.01928653
159	0xbda73f01	-0.08166314
160	0x3d9276e4	0.07151583
161	0x3d365d6b	0.044522684
162	0x3dd0af0f	0.1018964
163	0x3e01021e	0.12598464
164	0x3d14ae2b	0.036298912
165	0xbb42410e	-0.0029640826
166	0x3d87040f	0.06592571
167	0x3d47f025	0.048813004
168	0x3d7a85a2	0.0611626
169	0xbc263ab2	-0.01014583
170	0xbd9de4c4	-0.07709649
171	0x3d0d9f7a	0.034575917
172	0xbc137ad8	-0.009001456
173	0xbd6aa65e	-0.057287566
174	0x3d8d0a98	0.06886786
175	0x3cdb92c9	0.026803391
176	0x3d5049dd	0.05085169
177	0x3cc615a5	0.024180243
178	0x3d19b039	0.037521575
179	0xbcd9cc6a	-0.02658673
180	0x3d71a5a7	0.05899587
181	0xbd2a0e96	-0.041517816
182	0x3dd7d7f5	0.105392374
183	0x3c4658d7	0.012106142
184	0xbcbf3329	-0.023339825
185	0x3db048b5	0.08607618
186	0xbd64b19b	-0.05583344
187	0xbdd91115	-0.10598961
188	0xbdab6343	-0.08368542
189	0x3c88ef02	0.01671553
190	0x3c937cf3	0.018003916
191	0x3d39e76b	0.045386713
192	0x3d7fdd46	0.062466882
193	0x3d6e92de	0.058245532
194	0x3d36b216	0.04460343
195	0xbd15cd9b	-0.036573034
196	0xbd8b3d20	-0.06798768
197	0x3bbcbbd2	0.0057596946
198	0xbd1592eb	-0.036517065
199	0xbd807e52	-0.06274094
200	0xbdf45766	-0.119307324
201	0xbd17ec22	-0.03709043
202	0xbc03576d	-0.008016449
203	0xbdbfe762	-0.09370305
204	0x3c497dac	0.012298029
205	0xbd77e550	-0.060521424
206	0x3bfd1e89	0.0077245873
207	0x3cef437a	0.02920698
208	0x3d4f0c24	0.050548688
209	0x3cfda4dc	0.0309624
210	0x3d360297	0.044436064
211	0x3cd7ba20	0.026333869
212	0xbd769363	-0.060199153
213	0xbd72a65a	-0.059240676
214	0xbd9cb471	-0.07651604
215	0xbdd451a6	-0.10367136
216	0x3d18eb97	0.03733405
217	0x3c481f29	0.01221446
218	0x3d4371ba	0.04771588
219	0xbda1c60b	-0.07899102
220	0xbd19895a	-0.037484504
221	0xbdb05379	-0.08609671
222	0x3ca11394	0.019662656
223	0x3dc04033	0.09387245
224	0xbdd244f6	-0.102670595
225	0xbddbc73d	-0.10731361
226	0xbd4d55b8	-0.050130576
227	0x3d95cfa8	0.07314998
228	0xbe083a6b	-0.13303535
229	0xbd060492	-0.032719202
230	0xbbe01859	-0.00683884
231	0xbcf70876	-0.030155402
232	0x3d846bac	0.06465849
233	0xbd2ab7b6	-0.041679107
234	0x3cb38643	0.021914607
235	0xbbb7b0e6	-0.0056058047
236	0x3da1b6ce	0.07896195
237	0x3ccbea89	0.024892109
238	0x3b7cb238	0.0038558375
239	0x3bce39f8	0.0062935315
240	0xbd891db6	-0.0669512
241	0xbca0ea65	-0.019643018
242	0xbd781aff	-0.06057262
243	0x3d9fdd66	0.078059
244	0x3decde5f	0.115658514
245	0xbd3620fb	-0.044465046
246	0x3d4aca2c	0.049509212
247	0x3dc5242a	0.09626038
248	0x3d536e0a	0.051618613
249	0xbd22bee3	-0.039732825
250	0xbdc58618	-0.09644717
251	0xbdd9ccda	-0.106347755
252	0xbdde90e6	-0.10867481
253	0xbdf89234	-0.12137261
254	0xbd556064	-0.05209388
255	0xbd85df18	-0.065366924

res1.conv2.bn2.weight f4 [16]
0	0x3f7674ab	0.9627177
1	0x3f675f4e	0.903798
2	0x3f6e7731	0.9315062
3	0x3f6783b7	0.90435356
4	0x3f6c56a9	0.9231973
5	0x3f73aa40	0.95181656
6	0x3f7404a9	0.9531961
7	0x3f71bddf	0.94430345
8	0x3f67342e	0.90313995
9	0x3f679fd0	0.9047823
10	0x3f6bbedf	0.9208812
11	0x3f7ed8d5	0.9954961
12	0x3f7d1526	0.98860395
13	0x3f70533c	0.93877006
14	0x3f6debc4	0.92937875
15	0x3f61ec5f	0.882513

res1.conv2.bn2.bias f4 [16]
0	0x3c6fdd0a	0.014640102
1	0xbcee3161	-0.02907628
2	0x38236254	3.8953804e-05
3	0xbcd42939	-0.025898563
4	0xbd2f46ca	-0.04279212
5	0x3d117fe1	0.035522345
6	0xbdbd1cbd	-0.09233997
7	0xbd6e0665	-0.058111567
8	0x3c9228de	0.017841753
9	0xbd5a0dcc	-0.053235814
10	0x3d52e02e	0.051483326
11	0x3d77c14f	0.060487088
12	0x3d77c7c3	0.060493242
13	0xbd1454be	-0.03621363
14	0xbc925a41	-0.017865302
15	0xbddc5eb7	-0.10760253

res1.conv2.bn2.running_mean f4 [16]
0	0x39f75cec	0.00047180743
1	0x3bb02f22	0.0053767124
2	0xbb8e298b	-0.0043384484
3	0xbc8b5d67	-0.017012311
4	0x39a98da8	0.00032339734
5	0x3beddf69	0.0072592986
6	0xbcecf16f	-0.028923718
7	0xbb9c63c9	-0.0047726375
8	0x3bb7f5e4	0.0056140292
9	0x3c41c553	0.011826831
10	0xbc69ddcb	-0.014274071
11	0x3beb58fa	0.0071822377
12	0xbbd68320	-0.006546393
13	0xbb295609	-0.0025838634
14	0xbca515bb	-0.020151963
15	0xbc9aabde	-0.01888078

res1.conv2.bn2.running_var f4 [16]
0	0x3f29ecff	0.6637725
1	0x3f1644a2	0.58698475
2	0x3f615262	0.8801633
3	0x3f8fbf46	1.1230247
4	0x4037a66c	2.8695326
5	0x3f890904	1.0705876
6	0x3efc8616	0.4932105
7	0x3f6ecbc4	0.9327967
8	0x3fdc99db	1.7234453
9	0x3f2eb2b9	0.6824146
10	0x3fc6b7ed	1.552488
11	0x3fbaaa2f	1.4583186
12	0x4072340e	3.7844272
13	0x3f834a69	1.0257083
14	0x3fc3e5f9	1.5304557
15	0x3f21bd58	0.6317954

res1.downscale.weight f4 [16, 8, 1, 1]
0	0x3eb82ea8	0.35973096
1	0x3e2c7aa3	0.16843657
2	0x3e88345d	0.2660245
3	0x3dc13519	0.09433956
4	0x3e2ebf78	0.17065227
5	0xbeb4b604	-0.35295117
6	0x3ea703fd	0.3262023
7	0xbd24db1f	-0.040248033
8	0xbe6e6deb	-0.23284118
9	0xbcdaa0a2	-0.026687924
10	0x3e422118	0.18957937
11	0x3de92f62	0.11385991
12	0x3dfd49df	0.123676054
13	0xbe309b07	-0.17246638
14	0x3e0816c0	0.13289928
15	0x3e88c57c	0.2671317
16	0x3e920f5a	0.28527337
17	0xbe7c814d	-0.246587
18	0x3e187920	0.14889956
19	0xbe24d258	-0.16095865
20	0xbe061274	-0.13092977
21	0xbe879c42	-0.26486403
22	0x3e57bffc	0.2106933
23	0x3eaa89e7	0.33308336
24	0x3d9ed45b	0.07755347
25	0xbe1d80df	-0.15381192
26	0xbe7b3026	-0.24530086
27	0xbe106566	-0.1410118
28	0x3e1e2daf	0.15447114
29	0x3e9633de	0.29336447
30	0xbe067da1	-0.13133861
31	0xbd4b9c42	-0.049709566
32	0x3e7b8d7a	0.24565688
33	0xbe42858d	-0.18996258
34	0xbe4aa759	-0.197904
35	0xbdd03594	-0.10166469
36	0x3e479b1a	0.1949276
37	0x3ebea045	0.3723165
38	0x3c8e44e1	0.017366828
39	0x3e33e42a	0.17567506
40	0x3ec0214a	0.37525398
41	0x3e716366	0.23573074
42	0xbe366098	-0.17810285
43	0x3e6dbc7c	0.23216432
44	0xbe162cea	-0.14665571
45	0x3d6c05b7	0.057622638
46	0x3da938d6	0.08262794
47	0xbe38c162	-0.1804252
48	0xbd651ed8	-0.055937618
49	0x3cda6885	0.026661167
50	0x3e399f4c	0.18127173
51	0x3e462238	0.19348991
52	0xbe0a840c	-0.13526934
53	0x3d8dba13	0.069202565
54	0xbc982183	-0.018570667
55	0x3e862694	0.26201308
56	0xbdfb7bf2	-0.122795
57	0x3e0ac296	0.13550791
58	0x3b59f169	0.0033255464
59	0xbd776d29	-0.060406838
60	0x3e171201	0.14752962
61	0xbd1b3376	-0.037890874
62	0xbe166e4f	-0.14690517
63	0xbe2c87ec	-0.16848725
64	0x3e6348c8	0.22195733
65	0xbda5c20b	-0.080936514
66	0x3e09fdb5	0.13475688
67	0xbe62b211	-0.2213824
68	0x3e756891	0.2396567
69	0x3e963ee4	0.29344857
70	0x3e51b01a	0.20477334
71	0xbd9758d7	-0.07389992
72	0x3e898d10	0.26865435
73	0xbd1d1a12	-0.03835494
74	0x3ea8d3d6	0.32974118
75	0xbe95f094	-0.2928511
76	0x3e5de9e4	0.21671253
77	0xbe952ada	-0.29134256
78	0xbe968bd8	-0.29403567
79	0x3e28f747	0.16500579
80	0xbd75b733	-0.059989166
81	0xbe8624dd	-0.262
82	0x3e25f589	0.16206945
83	0x3e4764b3	0.19472007
84	0xbe5747bb	-0.21023457
85	0x3e9b51fe	0.30335993
86	0xbe5d42d6	-0.21607527
87	0x3e09fcff	0.13475417
88	0xbe6eb860	-0.23312521
89	0xbdb49acd	-0.088185884
90	0xbde020d1	-0.10943759
91	0x3df6ee46	0.12057166
92	0x3ed7aff9	0.42126444
93	0x3eb9b47f	0.3627052
94	0xbe5acb2b	-0.21366565
95	0xbeba2fb8	-0.36364532
96	0xbe94add3	-0.29038867
97	0x3e440e18	0.19146001
98	0x3d3ca24b	0.046053212
99	0xbe73cb81	-0.238081
100	0x3dae584a	0.085129336
101	0xbea46386	-0.3210718
102	0x3e9a6061	0.30151656
103	0x3d99e4f6	0.07514374
104	0x3e55179c	0.20809788
105	0x3c56ee1b	0.013118292
106	0x3e822428	0.2541821
107	0xbe302329	-0.17200913
108	0xbc09448f	-0.008378162
109	0xbea610e3	-0.3243476
110	0x3e22b9a9	0.15891136
111	0xbd12bfb1	-0.035827342
112	0xbe3fd63b	-0.18734066
113	0x3e9ef7b4	0.31048357
114	0x3e6351a5	0.22199114
115	0xbe57d79f	-0.21078347
116	0x3e7d2f3f	0.24725054
117	0x3ea311df	0.31849572
118	0xbd44fef8	-0.04809472
119	0xbdfbc203	-0.12292864
120	0x3e803d05	0.25046554
121	0xbe1944e6	-0.14967689
122	0x3e5c53af	0.21516298
123	0xbe7af570	-0.2450769
124	0xbe8eee8a	-0.27916366
125	0x3da4122b	0.08011278
126	0xbdb5a711	-0.08869756
127	0xbe8a51fc	-0.27015674

res1.downscale.bias f4 [16]
0	0x3da65cf0	0.08123195
1	0xbdc8b945	-0.09800962
2	0xbd6c83f0	-0.057743013
3	0x3c01c0d2	0.007919507
4	0xbd70846b	-0.058720034
5	0xbc8f50b5	-0.017494539
6	0x3c394ae4	0.011309359
7	0xbdf5d713	-0.12003913
8	0x3c26b054	0.010173876
9	0xbbe2c14b	-0.006920015
10	0x3d3ce76b	0.046119135
11	0x3d4b8d5f	0.04969537
12	0x3e45d66e	0.1932008
13	0xbdfe88d7	-0.12428444
14	0xbab75b87	-0.0013989069
15	0xbe62b746	-0.22140226

res2.conv1.bn1.weight f4 [16]
0	0x3f7954bf	0.9739494
1	0x3f568551	0.83797175
2	0x3f81f173	1.015181
3	0x3f5b1261	0.8557492
4	0x3f5d7f6d	0.8652256
5	0x3f79b8eb	0.9754779
6	0x3f6b40b9	0.91895634
7	0x3f5e36db	0.8680245
8	0x3f58c316	0.8467268
9	0x3f581e17	0.84420913
10	0x3f4bd228	0.7961755
11	0x3f828ea7	1.0199784
12	0x3f549be6	0.8305038
13	0x3f607424	0.87677217
14	0x3f538284	0.82621026
15	0x3f628b7d	0.8849409

res2.conv1.bn1.bias f4 [16]
0	0xbc8feb7a	-0.017568339
1	0x3c89bff3	0.016815161
2	0x3b494754	0.003071268
3	0x3d383aaa	0.04497782
4	0x3d8f271e	0.06989883
5	0x3aed7cfe	0.0018118916
6	0xbcfbd4b8	-0.03074108
7	0x3c99ed0c	0.01878979
8	0xbc58f6e4	-0.013242457
9	0xbd18bd86	-0.03729012
10	0x3d110fd0	0.03541547
11	0x3c684075	0.014175524
12	0x3d219975	0.03945299
13	0x3ca13b77	0.019681675
14	0xbb2f9fc9	-0.002679812
15	0xbc640668	-0.013917543

res2.conv1.bn1.running_mean f4 [16]
0	0x3f815a18	1.010562
1	0x3eb2abb2	0.34896618
2	0x3f007b66	0.5018829
3	0x3e75712e	0.23968956
4	0x3ecc8794	0.39947188
5	0x3f010553	0.5039875
6	0x3f0b46d8	0.54404974
7	0x3e032695	0.12807687
8	0x3f283ced	0.65717965
9	0x3f085f02	0.5326997
10	0x3eef50df	0.46741387
11	0x3e99cf97	0.3004119
12	0x3ee98851	0.45611814
13	0x3e8942e3	0.26808843
14	0x3ef5d0a0	0.4801073
15	0xbe0c9d39	-0.1373185

res2.conv1.bn1.running_var f4 [16]
0	0x3f2eed26	0.6833061
1	0x3eca37b2	0.39495617
2	0x3f286680	0.657814
3	0x3f58de64	0.8471434
4	0x3eeea246	0.4660818
5	0x3f473753	0.77818793
6	0x3f0c3204	0.5476382
7	0x3f3668fd	0.7125395
8	0x3ebbed44	0.36704457
9	0x3f513ff5	0.81738216
10	0x3eff6adf	0.49886224
11	0x3e9a3d47	0.30124876
12	0x3ec7092c	0.38874185
13	0x3f35bbff	0.70989984
14	0x3f2f7930	0.6854429
15	0x3f4f86f8	0.8106532

res2.conv1.conv.weight f4 [32, 16, 3, 3]
0	0x3dbd5935	0.092455305
1	0x3dede722	0.11616351
2	0x3bb361a0	0.0054742843
3	0xbce07173	-0.027397847
4	0x3de7c259	0.11316366
5	0x3e009586	0.12557039
6	0x3ddf806a	0.10913165
7	0x3d8e0efd	0.069364525
8	0xbdfaec34	-0.122520834
9	0x3da5b8b4	0.0809187
10	0x3cb13c3e	0.021635171
11	0xbd531d87	-0.05154183
12	0x3dc4b4cb	0.09604796
13	0x3c3993e8	0.0113267675
14	0x3b96cf1e	0.004602327
15	0x3e18a7da	0.1490778
16	0x3d437504	0.047719017
17	0xbd3918e2	-0.045189746
18	0x3dac5fb6	0.08416693
19	0xbd0bf163	-0.03416575
20	0xbc1e90bb	-0.009678061
21	0x3c302938	0.010752015
22	0x3d7340f0	0.0593881
23	0x3dd937cc	0.106063455
24	0xbd170a8f	-0.036875304
25	0x3d823a21	0.063587435
26	0x3d7b2858	0.06131777
27	0xbd5dc7a0	-0.054145455
28	0x3d98ac6e	0.07454763
29	0x3c927668	0.017878726
30	0x3c47d482	0.012196662
31	0x3d600596	0.054692827
32	0xbb182121	-0.0023213106
33	0x3cd004d0	0.02539292
34	0xbd584e2c	-0.052808926
35	0xbd85086e	-0.064957485
36	0x3d4db7b7	0.050224032
37	0x3cc6e2ba	0.024278034
38	0x3c549b35	0.012976457
39	0xbd9e6766	-0.077345654
40	0x3c6d055a	0.014466608
41	0xbc65478f	-0.013994112
42	0x3d8d7bfe	0.06908415
43	0x3d312ce2	0.043255694
44	0x3d9b2d63	0.07577016
45	0xbd193e9b	-0.03741322
46	0xbcaec90c	-0.021336101
47	0xbb3fea93	-0.0029284104
48	0xbb34dda8	-0.0027597938
49	0x3d89a130	0.06720197
50	0x3daf27d2	0.08552517
51	0x3d9d0cb8	0.076684415
52	0x3da1a45b	0.078926764
53	0xbcaeb2b4	-0.021325447
54	0xbcf3cb13	-0.02975992
55	0x3c12a6f9	0.008950942
56	0xbd2692a7	-0.040667202
57	0x3d78444b	0.060612004
58	0xbd739469	-0.059467707
59	0x3d8bd706	0.06828122
60	0x3d69d490	0.05708748
61	0x3c299bda	0.010352099
62	0x3dd47cd4	0.103753716
63	0x3dd1d202	0.10245134
64	0x3cc92a3c	0.024556272
65	0x3c1647bf	0.009172379
66	0xbd554cab	-0.05207507
67	0xbdd5d7ce	-0.10441552
68	0xbbad8ce4	-0.0052963365
69	0xbd41a1ee	-0.04727357
70	0xbdc46e84	-0.09591392
71	0x3c88dc3a	0.016706575
72	0x3ab656f3	0.0013911411
73	0x3c3de5cf	0.011590435
74	0xbda87fac	-0.082274765
75	0xbd5304b6	-0.051518165
76	0xbd5910a2	-0.052994378
77	0xbd2ced10	-0.042218268
78	0x3da4b53d	0.08042381
79	0x3cdcc93f	0.02695143
80	0xbc33c384	-0.0109719075
81	0xbd98173c	-0.074263066
82	0xbbfc989a	-0.007708621
83	0x3b8e88b7	0.004349794
84	0xbd9f11eb	-0.077670895
85	0x3d8cefdb	0.06881686
86	0xbc829ccd	-0.015943909
87	0x3c255153	0.01009019
88	0xbd7104b9	-0.058842395
89	0xbcc7d520	-0.024393618
90	0x3c5f5d8e	0.013633145
91	0xbe0fedbc	-0.14055532
92	0xbd53857a	-0.051640965
93	0xbda25d85	-0.07927994
94	0xbde65dc6	-0.112483546
95	0xbd4244f1	-0.04742903
96	0xbbf65cad	-0.007518372
97	0x3d5a800f	0.053344782
98	0xbc891f61	-0.016738595
99	0xbd62cd9c	-0.055371866
100	0xbd120094	-0.035645083
101	0x3d6e1644	0.058126703
102	0x3e05e835	0.13076861
103	0xbe00e7a6	-0.12588367
104	0xbe091e4e	-0.13390467
105	0x3dfe600f	0.124206655
106	0xbd62b3bd	-0.055347193
107	0xbd1bfa12	-0.038080283
108	0x3c554c05	0.013018613
109	0xbd882353	-0.066473626
110	0xbd9f89f5	-0.07789985
111	0xbc2acd0c	-0.010424864
112	0xbaf5f6e2	-0.0018765593
113	0xbc90bc84	-0.017668016
114	0x3dab6ae6	0.08369999
115	0x3ca96b29	0.02068098
116	0xbc5b5e1e	-0.0133891385
117	0xbd193107	-0.03740027
118	0x3d7cd8bc	0.06173013
119	0x3dc1f23b	0.0947003
120	0x3b4caeec	0.0031232191
121	0x3c804e3e	0.015662309
122	0x3c1d9f1f	0.009620457
123	0x3d945e22	0.07244517
124	0xbd2d7b7b	-0.04235409
125	0x3be69003	0.0070362105
126	0xbd293a3a	-0.041315295
127	0x3c709e4b	0.0146861775
128	0x3cc1a780	0.02363944
129	0xbc8fc828	-0.017551497
130	0x3c99ef28	0.018790796
131	0xbd6aeedd	-0.057356704
132	0xbcf8232d	-0.03029021
133	0xbb007813	-0.001960282
134	0xbc64d7ed	-0.013967496
135	0x3d5fc3ff	0.054630276
136	0xbd7a95b3	-0.06117792
137	0xbd885528	-0.06656867
138	0xbd578361	-0.052615527
139	0x3c3ab91e	0.011396674
140	0xbc627a49	-0.0138231
141	0xbd316542	-0.043309458
142	0xbde174c0	-0.110085964
143	0xbd0fbf42	-0.035094507
144	0x3c2b25e1	0.010446043
145	0xbd18f057	-0.03733858
146	0x3d7f5968	0.062341124
147	0x3bdb8ec5	0.006700369
148	0x3b9b4ad8	0.0047391467
149	0xbb90ad76	-0.0044152094
150	0x3da97f5e	0.082762465
151	0x3d0a9bd8	0.03384003
152	0x3d69550a	0.056965865
153	0xbd623683	-0.055227768
154	0x3d9cee89	0.076626845
155	0x3d90bf79	0.070677705
156	0xbcde318a	-0.027123231
157	0x3dc42b40	0.09578562
158	0x3d66384c	0.056206033
159	0xbca80109	-0.020508306
160	0x3d0c03a6	0.034183167
161	0xb8d76ab3	-0.00010271873
162	0x3d7e62b5	0.062105853
163	0x3db7064f	0.0893675
164	0xbcaf9a85	-0.021435985
165	0x3d72a034	0.059234813
166	0x3d381aab	0.044947308
167	0xbda69235	-0.081333555
168	0x3e1d68d3	0.15372019
169	0x3d61ae8e	0.05509811
170	0xbd49b468	-0.049244314
171	0x3ca664c3	0.020311719
172	0xbc868f14	-0.016425647
173	0x3d4812d5	0.048846085
174	0xbd86bbbc	-0.06578776
175	0x3cba6cd9	0.02275698
176	0xbd882703	-0.06648066
177	0x3d8efc24	0.06981686
178	0xbcfb6987	-0.030689968
179	0x3d6cc0d8	0.057801098
180	0xbd2b305e	-0.041794173
181	0xbcb70bca	-0.022344489
182	0xbd512fec	-0.051071092
183	0x3c3120fe	0.010811089
184	0xbe009645	-0.12557323
185	0xbde57dde	-0.11205648
186	0xbd0e1d66	-0.034696005
187	0xbcff6fec	-0.031181298
188	0x3bf84772	0.0075768763
189	0xbd35c11a	-0.04437361
190	0xbdb06701	-0.086133964
191	0xbd8affa0	-0.06787038
192	0xbdb9fa74	-0.09080973
193	0xbd9783a8	-0.07398158
194	0x3b8eaaab	0.0043538413
195	0x3dc59468	0.09647447
196	0xbd2b902b	-0.041885536
197	0x3d5ce5ac	0.05392997
198	0x3d362ab0	0.044474304
199	0x3db7cb9c	0.08974382
200	0xbbabc5c2	-0.0052420804
201	0x3d361049	0.044449124
202	0x3c425b06	0.011862522
203	0xbd63344c	-0.055469796
204	0x3cfcb20b	0.030846616
205	0x3d7d2645	0.061804075
206	0xbd2d7e41	-0.042356733
207	0xbc28868c	-0.010285985
208	0x3d4fa620	0.05069554
209	0x3d4a330c	0.04936509
210	0x3d9d5f18	0.07684153
211	0xbcef96ea	-0.029246766
212	0x3c802d93	0.015646731
213	0x3c3a96a3	0.011388454
214	0xbbe219e3	-0.0069000586
215	0xbba27176	-0.0049573733
216	0x3d98c5b4	0.07459584
217	0x3c572723	0.0131318895
218	0x3cdb4925	0.026768276
219	0xbd225424	-0.039631024
220	0x3d171f9d	0.036895383
221	0xbd5b922b	-0.053606194
222	0x3d9b76cd	0.07591019
223	0xbdfbc1b9	-0.12292809
224	0xbc21734a	-0.009854147
225	0x3d24cbd7	0.04023346
226	0xbd1fab0f	-0.038981494
227	0x3caf6636	0.021411043
228	0xbd63e8c0	-0.05564189
229	0x3cc18279	0.023621785
230	0x3d2a7a7a	0.04162071
231	0xbb3b3f89	-0.0028571805
232	0x3d2d867a	0.042364575
233	0x3da3c4c3	0.07996514
234	0xbd97dea4	-0.07415512
235	0xbd5df157	-0.054185238
236	0xbde85202	-0.11343767
237	0xbbc41747	-0.00598422
238	0x3b02b582	0.0019944613
239	0x3ce6ff6f	0.028197972
240	0xbdcb177a	-0.09916587
241	0xbd84b665	-0.064801015
242	0x3c22c5a2	0.009934815
243	0xbdfb3fb1	-0.122680075
244	0x3d598e4f	0.05311423
245	0x3dc6dcc5	0.09710077
246	0xbc11e376	-0.008904329
247	0x3d8e2105	0.06939892
248	0xbbae6841	-0.0053224866
249	0xbdda362f	-0.10654866
250	0xbc1f3ec2	-0.0097195525
251	0xbd0e7e97	-0.034788694
252	0xbc974949	-0.018467562
253	0xbcf1f0de	-0.0295338
254	0xbc05f86d	-0.008176905
255	0xbcbc7962	-0.023007099

res2.conv1.bn2.weight f4 [32]
0	0x3f49ab75	0.7877725
1	0x3f2f4250	0.6846056
2	0x3f40709c	0.7517183
3	0x3f55b2f3	0.8347618
4	0x3f528d7e	0.8224715
5	0x3f4a6992	0.7906734
6	0x3f4d8fee	0.80297744
7	0x3f52b985	0.8231433
8	0x3f34230d	0.70365983
9	0x3f372f3f	0.71556467
10	0x3f4e4947	0.8058056
11	0x3f3f420c	0.74710155
12	0x3f3694bd	0.71320707
13	0x3f332a01	0.6998597
14	0x3f3e5b87	0.7435841
15	0x3f2869a0	0.6578617
16	0x3f59e3ba	0.8511311
17	0x3f3fd5f5	0.7493585
18	0x3f397d10	0.72456455
19	0x3f4847b1	0.7823439
20	0x3f4a45c5	0.7901271
21	0x3f591a38	0.8480563
22	0x3f34c7b1	0.70617205
23	0x3f51f8b6	0.8202013
24	0x3f53896c	0.82631564
25	0x3f3fee66	0.7497314
26	0x3f3aa93c	0.7291448
27	0x3f3ad367	0.72978824
28	0x3f49fd09	0.78901726
29	0x3f4af227	0.79275745
30	0x3f4d6394	0.8023007
31	0x3f5305b8	0.824306

res2.conv1.bn2.bias f4 [32]
0	0xbc6317ec	-0.013860684
1	0xbcafc62e	-0.021456804
2	0x3d7a5139	0.061112616
3	0x3d87203c	0.06597945
4	0x3d346820	0.044044614
5	0xbc884d7b	-0.016638508
6	0xbd11520f	-0.035478648
7	0xbd81b3fa	-0.06333156
8	0xbd0f8398	-0.035037607
9	0xbd38162d	-0.044943023
10	0xbd49fbab	-0.049312275
11	0xbb7efe24	-0.0038908804
12	0x3e020fc7	0.12701331
13	0xbd2c227f	-0.042025086
14	0x3c30e51b	0.0107968105
15	0x3d0bcad0	0.034128964
16	0xbd7e1810	-0.062034667
17	0xbcf2a9d7	-0.029622002
18	0x3d92f2f3	0.07175245
19	0xbc63dfe6	-0.013908362
20	0xbca884b9	-0.0205711
21	0xbd357cfd	-0.04430865
22	0xbd9cb6fa	-0.076520875
23	0xbcb74671	-0.022372456
24	0xbdcdce46	-0.10049109
25	0xbc229d39	-0.00992518
26	0x3bd9266a	0.0066268938
27	0xbd280b7b	-0.041026574
28	0xbdae1ddd	-0.0850179
29	0x3dc8d45e	0.09806131
30	0xbb71dc0b	-0.0036904837
31	0x3c3b95a5	0.011449252

res2.conv1.bn2.running_mean f4 [32]
0	0xbb563b4a	-0.0032689148
1	0x3c1f7d2d	0.009734434
2	0x3c931e30	0.01795873
3	0xbd40dc12	-0.047084875
4	0x3bb71e6f	0.0055883448
5	0xbb74c107	-0.0037346499
6	0x3b9a09b9	0.004700866
7	0x3ca517a3	0.020152872
8	0x3be6daba	0.007045117
9	0xbbc8c9a4	-0.006127553
10	0x3b094e2e	0.002095114
11	0x3b22eea3	0.0024861477
12	0x3c27473c	0.010209855
13	0x3d3d0181	0.046144012
14	0xbc88c644	-0.016696103
15	0x3bc9d2a9	0.006159146
16	0x3ace5402	0.0015741589
17	0xbc192681	-0.009347559
18	0x3d15102c	0.036392376
19	0x3c1717e0	0.009222001
20	0x3c978d85	0.018500099
21	0xbcb87354	-0.02251593
22	0xbca6ce74	-0.020362116
23	0xbc151c17	-0.009100935
24	0xbc1e06ec	-0.009645205
25	0xbaafe48d	-0.0013419554
26	0x3ce57f01	0.028014662
27	0x39c0dcb3	0.00036785527
28	0xbc817d34	-0.015806772
29	0x3c61c7ec	0.013780575
30	0x3cad5a48	0.021161214
31	0x3bb080c0	0.005386442

res2.conv1.bn2.running_var f4 [32]
0	0x3f7cc490	0.9873743
1	0x3f9debd7	1.2337598
2	0x3fec7676	1.8473651
3	0x3f343d78	0.70406294
4	0x3f87c1df	1.060604
5	0x3eced875	0.4039952
6	0x3f773674	0.96567464
7	0x401b2e57	2.4247034
8	0x3f3d4d5d	0.7394617
9	0x3f2f2239	0.68411595
10	0x3f51a756	0.8189596
11	0x3f8059f2	1.0027449
12	0x4000a7c5	2.0102398
13	0x3f9cbefc	1.2245784
14	0x3ef37f68	0.4755814
15	0x3f9537ec	1.1657691
16	0x3f46afbb	0.77611893
17	0x3f8ce173	1.1006302
18	0x4000d14a	2.012774
19	0x3f7e1519	0.9925094
20	0x3f4ed608	0.80795336
21	0x3e90fd0f	0.28318068
22	0x3f17f16d	0.5935276
23	0x3fc73cf2	1.5565474
24	0x3fea799b	1.8318361
25	0x3f9e4ffb	1.2368158
26	0x3f2fbc4d	0.686467
27	0x3f62cfd3	0.88598365
28	0x3f494a2a	0.7862879
29	0x3fe3e7ed	1.7805153
30	0x3f00d897	0.5033049
31	0x3f56e33a	0.8394047

res2.conv2.bn1.weight f4 [32]
0	0x3f5c2d72	0.86006844
1	0x3f45edcd	0.7731598
2	0x3f4f92fa	0.81083643
3	0x3f8670eb	1.050321
4	0x3f6782cc	0.90433955
5	0x3f638d56	0.88887537
6	0x3f69ae3b	0.9128148
7	0x3f469c2d	0.77582055
8	0x3f66ed68	0.90206003
9	0x3f5b6b51	0.85710627
10	0x3f67103b	0.9025914
11	0x3f4496b8	0.7679248
12	0x3f541728	0.82847834
13	0x3f323e22	0.6962606
14	0x3f5e38a7	0.86805195
15	0x3f36bf28	0.7138543
16	0x3f8035fb	1.0016474
17	0x3f49ba6f	0.788001
18	0x3f41cb9f	0.75701326
19	0x3f5f6625	0.87265235
20	0x3f5e051d	0.8672655
21	0x3f84812d	1.0351921
22	0x3f3b2e44	0.7311747
23	0x3f59068c	0.84775615
24	0x3f6011e0	0.87527275
25	0x3f5627ce	0.8365449
26	0x3f56d877	0.8392405
27	0x3f68616d	0.9077366
28	0x3f5f4739	0.8721805
29	0x3f5ba74c	0.8580215
30	0x3f637f07	0.88865703
31	0x3f6c1693	0.92221946

res2.conv2.bn1.bias f4 [32]
0	0x3d52e9c0	0.051492453
1	0x3d90b676	0.07066052
2	0x3dde1b38	0.10845035
3	0x3c1d0209	0.009583005
4	0x3d95c61f	0.07313179
5	0x3ca01cf4	0.019545056
6	0x3d6f415b	0.058411937
7	0x3d9027d7	0.07038849
8	0x3ddd997a	0.10820289
9	0x3d2f1326	0.04274287
10	0x3e08e9a8	0.13370383
11	0x3d59588b	0.053062957
12	0x3d97ce68	0.07412416
13	0x3de60433	0.1123127
14	0x3cfdf4af	0.031000463
15	0x3d9cccbe	0.07656239
16	0x3d57fc26	0.052730702
17	0x3d981f25	0.07427815
18	0x3e27146b	0.16316383
19	0x3d4d3f02	0.050108917
20	0x3c406942	0.011743845
21	0x3c66f2f4	0.0140960105
22	0x3e05ca5b	0.13065474
23	0x3da4aa12	0.08040251
24	0x3d0d07b5	0.034431178
25	0x3dbc8017	0.09204119
26	0x3c42f3cb	0.011898945
27	0x3d87b995	0.06627194
28	0x3d824211	0.063602574
29	0x3e032b41	0.12809469
30	0x3c9df85a	0.019283462
31	0x3d032640	0.0320189

res2.conv2.bn1.running_mean f4 [32]
0	0x3e98a2c2	0.29811674
1	0x3eadf507	0.33976004
2	0x3eaac9ec	0.3335718
3	0x3e98c733	0.29839477
4	0x3ebb047f	0.36526868
5	0x3eaee5f2	0.3415981
6	0x3ea196e9	0.31560448
7	0x3e9fbb4e	0.3119759
8	0x3ea3cd0d	0.3199238
9	0x3ea9421f	0.3305826
10	0x3ea696df	0.3253698
11	0x3eb93c9e	0.3617906
12	0x3ead11a4	0.3380252
13	0x3eac6161	0.33668044
14	0x3eb2ce35	0.34922948
15	0x3ea35eb7	0.319082
16	0x3eaa0995	0.33210436
17	0x3eaa0518	0.3320701
18	0x3ebc644c	0.3679527
19	0x3ea937ec	0.33050478
20	0x3eb09d86	0.3449518
21	0x3e9288e5	0.28620067
22	0x3ea350d1	0.31897596
23	0x3eacfa1f	0.33784577
24	0x3ea51999	0.32246092
25	0x3ea3b228	0.3197186
26	0x3ea964f5	0.33084837
27	0x3ea515d6	0.32243222
28	0x3e9b351b	0.30313954
29	0x3ea4f5c6	0.3221876
30	0x3e9f3a6e	0.31099266
31	0x3ea1a117	0.31568214

res2.conv2.bn1.running_var f4 [32]
0	0x3efd279f	0.4944429
1	0x3e8de1ff	0.27711484
2	0x3eeee696	0.46660298
3	0x3ec23c4f	0.37936637
4	0x3e8fd69a	0.28093415
5	0x3ebb70ed	0.36609593
6	0x3e89698e	0.26838344
7	0x3ea80158	0.32813525
8	0x3e6ca0a4	0.23108155
9	0x3eeed1b6	0.46644372
10	0x3ed14542	0.40873152
11	0x3e7dab09	0.24772276
12	0x3eefcbf5	0.46835294
13	0x3e5d2024	0.21594292
14	0x3eaf5bf2	0.34249836
15	0x3ed9bb2f	0.42525622
16	0x3e9b399f	0.303174
17	0x3ed2c87e	0.41168588
18	0x3eb18a5c	0.34675872
19	0x3edb114e	0.4278664
20	0x3e595c67	0.21226655
21	0x3ee10db9	0.43955782
22	0x3e8b75fc	0.27238452
23	0x3e93ed10	0.28891802
24	0x3ec429fe	0.38313287
25	0x3e8c3628	0.27385068
26	0x3ebb1c7c	0.3654517
27	0x3ee18fea	0.4405511
28	0x3e80b311	0.25136617
29	0x3ed112c7	0.40834638
30	0x3ee47f54	0.44628394
31	0x3e548f59	0.20757808
